mnist.pth (torch, 902331 bytes, 8 tensors)

conv1.weight f4 [32, 1, 3, 3]
00000000: 0e3c 09be fb42 eabe 09bd 883d 40a5 713e
00000010: 72b6 71be f204 b7be ea4b 723e 1518 bc3e
00000020: 228c 613e 53f6 823e c8f5 6c3d 284c 05be
00000030: 1951 7d3e 0a11 303e de17 84be 20c6 bf3e
00000040: 86bc 3c3d d78e f3be 132f ebbe 4bb5 3e3e
00000050: 79c4 cd3e 652c 5cbf 2ae6 fabd c00b acbc
00000060: f328 44be bd4a 27bf 951f b2be 2243 6ebe
00000070: e3e5 b6be 4d5c 9e3e 06e8 8fbe c05a 9cbe
00000080: eb9a aebe 2d27 0c3f 9152 5d3e 0df5 29be
00000090: 4612 22bd 0d23 3e3e 2992 10bf 11c4 0ebe
000000a0: 544f 913d b029 7cbe f2b2 4f3e cb84 18bf
000000b0: b31a f2be fdc2 82be ccef 7dbe 5c3e e73e
000000c0: 90f6 15bf a9ed 6a3e 22f6 863e e1c9 b6be
000000d0: efa8 433e 6240 c23e a7ba 2f3f d4f7 85be
000000e0: 2b74 0ebf 4869 45bf 49e4 29bf 1fc4 72bc
000000f0: 0920 91bd 72f7 aa3e 835d 403f 8f44 ecbc
00000100: 5f5f 453d 270c abbd 53e9 6bbc d598 b53e
00000110: 20e0 563e ad68 b2be b454 4ebd deb7 8b3e
00000120: 6624 c13c 77f9 a8be 326b 22be 6788 043f
00000130: bca8 47be 1c5b c1be a6b3 393d c1eb ef3e
00000140: 6686 1abd 39fa 14be 34a5 95be 2e06 633e
00000150: 8794 8fbe 2e3c 8ebe 0adb a83e e83a 07bf
00000160: 0249 01be 8de8 c93e c486 a7be f10b 69bd
00000170: 9092 3d3e 59af 333e 1741 0a3e 971a b13e
00000180: b1bc 7f3e 65fd 673e 004f 11be b6d0 11be
00000190: 170a 16be e197 993e 27c3 e33e 1eec dbbc
000001a0: 8a5e 6a3e 8a0a 1ebe 1730 853e 0677 8dbe
000001b0: d775 8c3e 0184 f03e fd7b 603e bb68 c93e
000001c0: 4d33 5bbe 6625 80be 9f13 1bbf 47eb fdbe
000001d0: 259e 8ebe d2af 00be 8def e33e 2cce 173f
000001e0: ea90 e13d ef7b 00be 7914 f13e 71e2 3bbf
000001f0: b2d9 19bf b27d 9c3d 1560 253e 4b9b debe
00000200: 61e1 bebe 18de 7abb fab0 b73e 5e7d 93be
00000210: 0f38 d43d 0f68 c03e fe69 323e bf7d e53e
00000220: 671d a63e 63ac d33e 3da5 afbe 151a aabe
00000230: 8278 38be 47af afbe 670b 73be f3a6 d6be
00000240: 737d 283d 6277 183e f92e e6be c1b7 b13e
00000250: a2cf 93bd 3c73 11bf a623 07bd 1a17 de3e
00000260: 66fe ee3d 5e10 ee3c e31b 383e 414c 583e
00000270: daaa 5a3e 9dab 383e 5361 d8be d2e0 17be
00000280: bbb6 063d 447f 52bd 3fcf 81be ea78 3ebe
00000290: 5024 16be 3158 77be 8dc2 4a3d 3468 8c3e
000002a0: 8018 f53d 89e8 9cbc bad3 153e f41c b9bd
000002b0: d118 a63e eba6 de3d 9978 ffbe 76d8 50bf
000002c0: 0f14 e7be 3ed8 6c3e b7a7 423e f293 ca3d
000002d0: 0f7a 5b3e 12fe ce3e 8148 c83e 78cc cd3e
000002e0: d871 a13e 8b3d 00be 9527 09bf c051 ecbe
000002f0: 87f9 c2be eb12 843e 84fb 16be a4a6 953e
00000300: 6cb0 9c3d a11b 9f3d ed08 98be 1ccb d43e
00000310: dc39 c93c bef4 d0be f800 5fbe 713f 5ebd
00000320: 2c2d afbe 6aa6 2a3e d269 443e 3962 033e
00000330: eb59 f8bd 25e6 8e3e 9146 6a3e dda1 88bd
00000340: 74b2 933e c154 7bbe 8a3f 643e 5a2e 36bd
00000350: 39fc 683d 399b 95be 593e 883e d980 893e
00000360: 9fe6 903d 72aa 0cbf ca7a cc3c 27c9 efbe
00000370: 4b4b b0be f378 cc3e bc3d dfbe 59ad a8bd
00000380: 7969 9b3e 5f5f 213e 2132 5bbe 4e33 d53d
00000390: 4ab3 5a3e 59e2 733e 20d0 d2bd 9c2a 883e
000003a0: 27e9 1a3d b995 4b3e 649b 16bf 7c81 e0be
000003b0: 3865 653e 2c9d 5bbe a5c0 b33e a3a0 073f
000003c0: c078 393e a25e cb3c e00a 99bd eea9 0bbf
000003d0: 08e8 02be 4cff 0d3d 810b 8dbe 5617 c93e
000003e0: db20 ae3e 7204 883e 9ffe 803b 3411 323d
000003f0: a413 d33c b80b 87be 6760 d2be 430f 40bd
-0.13401815 -0.45754227 0.066766806 0.23598194 -0.23604754 -0.3574596 0.23661771 0.36737123
0.22026113 0.25578555 0.057851583 -0.13017333 0.24737968 0.17194 -0.2579946 0.37455845
0.046078227 -0.47569916 -0.45934352 0.18623845 0.4018896 -0.8600524 -0.122509316 -0.021001697
-0.19156246 -0.65348417 -0.3478972 -0.23267797 -0.35722265 0.30929795 -0.28106707 -0.30537987
-0.34102568 0.5474728 0.21613528 -0.16597386 -0.03956821 0.18568058 -0.5647302 -0.13941981
0.07095209 -0.24625278 0.20283106 -0.59577626 -0.47285995 -0.2553939 -0.24798506 0.45164764
-0.5857935 0.22942223 0.2635966 -0.35700896 0.19107412 0.37939745 0.68644184 -0.2616564
-0.5564601 -0.7711377 -0.6636396 -0.014817267 -0.07086188 0.3339191 0.7514269 -0.028841285
0.048186656 -0.08351927 -0.014398891 0.35468164 0.20983934 -0.34845486 -0.050373748 0.27288717
0.023576926 -0.33002827 -0.15861204 0.51770633 -0.19497961 -0.37764823 0.04533734 0.46859553
-0.03772583 -0.14548577 -0.29227602 0.22170326 -0.28043005 -0.27780288 0.32979614 -0.5282426
-0.12625507 0.39435235 -0.32720006 -0.056896154 0.1851294 0.17547359 0.13501392 0.345906
0.24974324 0.22655256 -0.14190292 -0.14239773 -0.14652286 0.29998687 0.44484827 -0.026845988
0.22887626 -0.15433708 0.26013252 -0.2762987 0.27433655 0.4697571 0.21922298 0.39337716
-0.21406288 -0.25028533 -0.60576814 -0.49593565 -0.2785503 -0.1256707 0.445187 0.5929897
0.11013968 -0.12547277 0.47085932 -0.733924 -0.600978 0.07641162 0.16149934 -0.43477854
-0.37281325 -0.003827935 0.3587721 -0.28806585 0.10362255 0.3757939 0.17423245 0.448225
0.32444307 0.41342458 -0.34305754 -0.33223024 -0.1801472 -0.34313414 -0.23734818 -0.41924247
0.041135263 0.14889291 -0.44957712 0.34710506 -0.07217337 -0.5681646 -0.03299298 0.43377
0.116696164 0.029060539 0.17979388 0.21122839 0.21354237 0.18034215 -0.42261752 -0.14831856
0.03288911 -0.0513909 -0.2535343 -0.18600813 -0.1466229 -0.24154736 0.049501944 0.2742325
0.11967564 -0.01915385 0.14631549 -0.090387255 0.32440808 0.10871681 -0.49896696 -0.81580293
-0.4513249 0.23129365 0.1900929 0.098914996 0.2143328 0.40428215 0.39117816 0.4019506
0.31532168 -0.12523477 -0.5357602 -0.4615612 -0.38081 0.25795683 -0.14744383 0.292287
0.07650837 0.07768942 -0.2969431 0.4156121 0.024563722 -0.40811723 -0.21777713 -0.05425972
-0.3421415 0.16665044 0.19180992 0.12830438 -0.121265255 0.2790996 0.22878481 -0.06671498
0.28847086 -0.2454405 0.22289863 -0.044477798 0.056881163 -0.29219988 0.26610067 0.26856115
0.070752375 -0.5494758 0.024960894 -0.46833155 -0.34432444 0.39936027 -0.43601787 -0.082361884
0.30353907 0.15759037 -0.21405841 0.10410176 0.21357456 0.23816814 -0.10293603 0.26595008
0.037820008 0.19881333 -0.5883086 -0.4384879 0.22401893 -0.21446675 0.35107914 0.5297949
0.18112469 0.024825398 -0.07472777 -0.5455617 -0.12783825 0.0346673 -0.2754784 0.39275616
0.34009442 0.26565892 0.003936603 0.043473437 0.025766201 -0.26376128 -0.41089174 -0.046889555

conv1.bias f4 [32]
00000000: 8e5a 40bd 82db 91bd ecf0 a43e ff7b c13d
00000010: c960 2e3e 57cf d9bd 1b5d aa3c 2d84 adbd
00000020: 82a1 1b3d 34d6 2a3e 78fd aebe 386f 57be
00000030: 1a7d 2f3e 63ab bc3b b39e eabc 65ff 043e
00000040: 9d1a 86bc 3b25 c5bd f4e0 8cbd 64ed 043e
00000050: fe68 bebb 5ddc 1fbe b0c3 a5bd fc0f 2dbe
00000060: 238a 043e 11d2 80be 6353 83bd 91bb d5bc
00000070: 994b 7ebc 4f01 6bbe e401 21be 2c7e 8fbe
-0.04696136 -0.07121946 0.3221506 0.094474785 0.17029108 -0.1063525 0.02079635 -0.08472476
0.037995823 0.16683275 -0.34177756 -0.2103852 0.17137566 0.0057577356 -0.028640127 0.1298805
-0.016370112 -0.09626242 -0.06878844 0.12981182 -0.005810856 -0.15611406 -0.08093965 -0.16900629
0.1294332 -0.25160268 -0.06412389 -0.026090415 -0.015520954 -0.22949718 -0.15723377 -0.2802595

conv2.weight f4 [64, 32, 3, 3]
00000000: a49b 6abd d093 3bbc 89d6 07be a2f3 5bbe
00000010: 8bf3 d23d 9524 4f3d 004a 643d 833f 70bc
00000020: a5e7 e03d eaba 9bbd 3c6f 9abc dbd4 30be
00000030: c9ff 80be 3123 553c e9d4 fc3c 79f9 65be
00000040: 50a7 3bbe 9dcb 5b3d 7bb7 b2bd c014 46be
00000050: 99cd 21be 3f8a 453e 3eec b0bd 1d98 21be
00000060: ee71 1b3e 83f2 183e ffec 9fbe eacc 953d
00000070: 3c4e d53d 02ee 31be ab36 993d ca06 f13c
00000080: 4ac3 a93d 6db3 113e 9fac 393b 23ce c9bb
00000090: 20ee 23be 5a84 d73b 405c 26be c85a 43be
000000a0: b3d8 71be feb0 ddbd b9dd f03c 5d9c 96be
000000b0: 5a92 7abe e478 e63d 7f2b 6bbd e172 823e
000000c0: 9c61 d03d 8ae1 4a3d 4df0 293e 1221 0b3d
000000d0: c6b8 073d 8774 6bbe 7d9b a3bc d7f7 943d
000000e0: abdc 86bd 23f7 8dbe d369 8cbe 9699 90bd
000000f0: c02f 273d 9fa3 83be 3e96 89bd 18e7 d43d
00000100: 7845 bbbd dc07 bf3d 99d5 553d 2d29 543c
00000110: 4a16 84bd ada4 d6bd e071 b13d 4ce5 313d
00000120: eeb2 e0ba 5732 e23d d6fa 30be 9439 23be
00000130: 376a 463e 95d3 9c3c 800f 40bd 25a2 a5bd
00000140: 9a36 863d 5d6a 983d 4c19 0dbe 5c24 92bc
00000150: 00a2 183d cda0 0cbe edff 01bd f870 0c3c
00000160: d188 373d 75ab 90be ca32 1fbd b6e6 fb3c
00000170: 2703 cc3d bba4 2ebe f1f4 02bc 39c7 c23d
00000180: ea0d 63bd 4a44 963c ad0b da3d bdec abbc
00000190: 69da ba3d 1103 273e ebc7 e6bd b390 dabc
000001a0: b661 583d a76f 94bd 8a03 9a3b 6d98 113e
000001b0: 7647 53be 4eff 66bc 0764 8ebd 2aa3 53bd
000001c0: 2269 78be 6103 febd b3d2 81bd 463e 75bd
000001d0: 88b4 c1bc 14ae ee3d ba09 b73c 99f2 293e
000001e0: 3fd7 4b3e c4a5 4f3d e669 f63d f3a6 0f3c
000001f0: d791 a53d be23 b5bb 17e6 943b 4a9d 603d
00000200: 2db2 1bbe fe3b 86be c1f9 283e f873 09bd
00000210: 81e4 963d 732b 293c a107 993e e1ca 41be
00000220: c548 17bd 1131 83bd 6240 ee3b be36 f9bd
00000230: 2e65 11be ecbe dabc a27e 3dbd 0973 06be
00000240: 24a5 2d3d 6e89 ad3d 0439 29be 0615 4abd
00000250: 4071 4b3e aa67 e33d 24f5 11be 1e4d 273c
00000260: 2bcc 423e ec8e f1bc aa02 cbba 16bb d43c
00000270: 1b63 f0bc 4ebc b7bb 3e59 afba 0737 23be
00000280: fbdb 08be 9694 0f3d f05b 6b3c 1a47 1f3c
00000290: 6996 f53b f4d1 33bd 02e1 b8bd be55 82bc
000002a0: 6581 95bc f4b9 3dba 17ad 243d da14 cdbb
000002b0: 58ff b1bd 934f 22be 30ca 293d 93e4 a5be
000002c0: 8db8 90bc dc52 7e3d e9b0 b9bc 804f 25be
000002d0: 031a 53bd fbda f73a 3e8c 81bd e092 76bd
000002e0: dc2d a8bd 39d0 d4bc 55f8 86bd a46c 823c
000002f0: edac 263d 1ff3 16bd e080 923d c91f f0bd
00000300: 37f3 25be bbfa 3f3d a40a 673d b249 7fbe
00000310: 7da6 31be da0e e8bb 8a8a 43bc 573c b63c
00000320: 2c93 263d dabc d1bd d9bf e4bc d8cf a7bd
00000330: 4848 01be b2f6 9b3d f4bd f93d ac68 983d
00000340: f562 553c 4cd6 b63d a18b 843c c7cd 9b3d
00000350: d3a4 66bc c247 24be 9646 5f3c 335a 253e
00000360: ca71 843d 62e0 d0bd 4eb2 bcbc b5bb 29bc
00000370: 9877 9dbe 876c 21bd 7ff8 893b 27dd 13be
00000380: 2766 f6be 762e 603b e38b 59bd 8bb7 bcbd
00000390: b782 4fbd 3406 35bc c979 d43c b8bf a5bd
000003a0: dc46 9b3b 7c1c e83d db9b fc3c cd8e b23c
000003b0: 1f97 203e 4506 7fbd 54ee f3bd f156 4b3d
000003c0: bd2b c0bc b930 223d 5717 293b 1b7e 2c3d
000003d0: 4797 43bd 5b31 dc3d 28ec aabd 3e19 10be
000003e0: e049 7e3d 23ed 8cbd 1038 5abd f8b3 d13c
000003f0: 4980 543d e60d a03d 33f0 2abe 156f c4be
-0.057277337 -0.011448815 -0.13265432 -0.21479657 0.103003584 0.050571997 0.055734634 -0.01466358
0.10981683 -0.076040104 -0.018851869 -0.17268698 -0.2519515 0.013008879 0.030863242 -0.22458448
-0.18325543 0.053660978 -0.08726402 -0.19343853 -0.15801086 0.19291018 -0.086388096 -0.15780683
0.1518018 0.14936261 -0.312355 0.07314475 0.10415313 -0.17375949 0.0748113 0.029422183
0.082892016 0.14228602 0.002833165 -0.0061586066 -0.16008806 0.006577057 -0.16246128 -0.19077599
-0.2361782 -0.10824774 0.0294026 -0.2941617 -0.24469891 0.11253527 -0.057414528 0.2547827
0.101748675 0.049531497 0.16595574 0.033967085 0.033135198 -0.2299367 -0.019971604 0.07273834
-0.06585058 -0.27727613 -0.27424487 -0.07060544 0.040817022 -0.2571077 -0.067181095 0.1039564
-0.091441095 0.09327671 0.052205656 0.01294927 -0.06449564 -0.10480628 0.08664298 0.043431565
-0.0017143169 0.11044758 -0.17283186 -0.15939933 0.19376455 0.019143859 -0.046889782 -0.08087567
0.06553383 0.07442162 -0.13779181 -0.017839603 0.03726387 -0.13733216 -0.03173821 0.008571856
0.044808213 -0.2825581 -0.038866796 0.03074966 0.09961539 -0.17055027 -0.007992969 0.09510655
-0.05543319 0.01834311 0.10646758 -0.020986909 0.0912369 0.16309763 -0.112686 -0.026680326
0.05282756 -0.072478585 0.004700129 0.14218302 -0.20632729 -0.014098955 -0.069526725 -0.051669277
-0.24258855 -0.12402988 -0.06339016 -0.05987384 -0.023645654 0.116542965 0.022343505 0.1659645
0.19906329 0.050695196 0.12031917 0.008767831 0.08084457 -0.0055279424 0.0045440304 0.054837503
-0.15204687 -0.26217645 0.16501524 -0.033557862 0.073678024 0.0103253005 0.29888633 -0.18925048
-0.036934633 -0.06405843 0.0072708586 -0.12168644 -0.14198753 -0.026702367 -0.046263345 -0.1312982
0.04239382 0.08473478 -0.16525656 -0.049336456 0.1986742 0.11103757 -0.1425367 0.010211257
0.19023196 -0.029487096 -0.0015488465 0.025968116 -0.029344132 -0.0056071645 -0.0013378037 -0.1593896
-0.13365166 0.035053812 0.014365181 0.009721542 0.007494737 -0.0439014 -0.09027292 -0.015910026
-0.018250177 -0.0007237487 0.040204134 -0.006258589 -0.08691281 -0.15850668 0.041452587 -0.3240095
-0.017666126 0.06209074 -0.022667365 -0.16143608 -0.05153848 0.0018909866 -0.06325577 -0.060198665
-0.08211872 -0.025978195 -0.06590334 0.015920945 0.04069226 -0.036852952 0.07153487 -0.117248125
-0.1620606 0.046869975 0.056406632 -0.24930456 -0.17348666 -0.0070818486 -0.011934886 0.02224557
0.040667698 -0.10241099 -0.027923511 -0.0819394 -0.1262523 0.07615413 0.12194434 0.074418396
0.0130240815 0.08927593 0.016179862 0.07607608 -0.014077383 -0.16042998 0.013627669 0.1614769
0.06467016 -0.101990476 -0.023034241 -0.010359694 -0.30755305 -0.03941014 0.0042105312 -0.14439832
-0.4812481 0.003420738 -0.053111922 -0.092146955 -0.05066177 -0.011048842 0.025936978 -0.08093208
0.0047386717 0.11333558 0.030836036 0.021796608 0.15682648 -0.06226184 -0.11910692 0.04964346
-0.023458356 0.039597247 0.0025801265 0.04211245 -0.04775169 0.10751601 -0.083458245 -0.14072129
0.06208217 -0.06881168 -0.05327612 0.025598511 0.051880155 0.07815151 -0.16693191 -0.38366

conv2.bias f4 [64]
00000000: 591e ecbd 5a8e 863a a66b e8bc 8107 133c
00000010: bcf0 0abe 17ef cbbd 573c 47bd d01f 8bbd
00000020: 5f1d 90bc c95e f8bc 3b97 003d ac83 8c3c
00000030: 307c 413d 73b9 54bd e320 91bb 2c28 d7bd
00000040: 710e d0bc 81ec 2d3d 27a0 c63c 23d5 84bb
00000050: 141b 053d 8dc4 6dbc 42b2 593c 1478 88bd
00000060: 5bff 77bc 863a febd 1a91 19bd f968 c43c
00000070: 6eca a6bd 2c4a a23c e131 bfbd 109c 88bd
00000080: ec20 d7bc c390 6fbd d690 273c c9d7 6bbc
00000090: 68c6 9ebd 41a6 27bd d07e a93c e86c 07bb
000000a0: 890c af3c 49a4 acbc f585 85bd ee3e 2cbc
000000b0: 4d69 56bd b9aa 34bd d44e fdbc f86a 783c
000000c0: d933 2fbd f73a acbd e765 45bb 9e55 68bd
000000d0: 7839 91bd 4903 623b 3af2 91bd 3011 2a3c
000000e0: 76ca f63b 98ba 80bd 8eeb 72bb b9dd 8cbd
000000f0: cf63 79bd b866 923c 10e9 5bbc 7f58 013d
-0.11529226 0.0010265813 -0.028371643 0.008973957 -0.13568395 -0.09957712 -0.04864153 -0.06793177
-0.01759213 -0.030318635 0.031394225 0.01715263 0.047237575 -0.05193467 -0.004428969 -0.10505709
-0.025397511 0.042461876 0.024246288 -0.004053728 0.032496527 -0.014512193 0.013287129 -0.06663528
-0.015136565 -0.12413506 -0.037491895 0.023975836 -0.08144079 0.019810759 -0.093356855 -0.066703916
-0.026260816 -0.058487665 0.010227403 -0.014394709 -0.07752687 -0.040930036 0.020690352 -0.0020664278
0.021368282 -0.021074431 -0.06519691 -0.0105130505 -0.052346516 -0.044108126 -0.030921377 0.015162222
-0.042774055 -0.08409684 -0.0030120553 -0.056722276 -0.070910394 0.0034486821 -0.07126279 0.010380074
0.0075314594 -0.0628559 -0.003706667 -0.06878228 -0.0608862 0.017871246 -0.013422266 0.031578537

fc1.weight f4 [128, 1600]
00000000: d976 823c ee9e 463d 3929 48bd 843c a0bd
00000010: 4887 4c3c 7f7c a43c 2242 ec3c dc06 943b
00000020: 8311 2fbd e9ad b03c b69d 0d3d bf6c f3bc
00000030: afda 173e a3e0 9abc d59d da3b 24ee f7bb
00000040: 8146 393d de02 b7bc 280a 183c da77 2b3d
00000050: 75d0 643d d19f 013d bb27 b9bc fcad f3bc
00000060: 05ea c43a 42b9 c43d abcf dfbc e3c7 31be
00000070: d364 0abe 7c77 4dbd 3897 073d b930 1dbd
00000080: 6100 4ebd 9120 57bd f975 9e3c 2175 c03c
00000090: d352 d63c db5a ee3d d990 0fbd 4464 01bd
000000a0: 52ae 463d ead5 023d ee95 743c 046b c93d
000000b0: efcc ca3d 439d 283c 447e ab3d b86d 6abd
000000c0: f79b 0e3e 9137 773e 3a31 4c3c a814 24bb
000000d0: 78e7 ba3b e92d ab3c 9993 9a3c 7daa a3bc
000000e0: 4f64 c4bc 53db 4bbc 205d 953a f7fc 5ebc
000000f0: 79dc b13c 7da9 af3c 69eb 9e3c e04d 62bc
00000100: 28dd adbb 43c7 0a3c 267e a8bc a75c 51bc
00000110: 06a1 753c 6fc7 9b3c a4aa d43b 8a81 b9bc
00000120: 02b7 533c 343a 83bc 9ef8 633c 1206 913c
00000130: 2502 513b 96f6 f9bc ea9d b0bb 282d 113d
00000140: 5eb8 0cbd 8211 d5bd 3d36 3dbe b9a6 a5bd
00000150: 4d1a fcbd ca35 cebd d7e8 4dbd 7fdc 56bd
00000160: 8952 f5bc 929e 3bbd aedd 233e 38dc dc3d
00000170: aacb 803d 8bc4 b03d e12d 983d 427b 123d
00000180: b6d0 a53c 9d1e 913c a17b dcbd aac8 1d3d
00000190: 7dd1 22bc 6e09 f7bc 4e2b 0bbd 2c75 49bd
000001a0: 451c c33b b313 6abd f6f7 e9bd 81db 80bd
000001b0: e329 34bd 04ec 4abd 2cd1 533d 7645 373d
000001c0: 3a87 2b3d 40d5 3abe bfb0 613c 3a1c c43d
000001d0: c4fa 7f3d 3ce5 cf3c 3e38 f4bb 0eb3 d13d
000001e0: 122d eb3c ce75 a3bc 7e84 0c3d b5af a7bc
000001f0: b0e8 dabb 1ea3 bb3d de37 11be 570a 87bd
00000200: 2413 16bd c2f7 b6ba c6a0 44bd 3c8e 80bd
00000210: 6a52 103b 63c8 783c 0823 e83c 9653 f73d
00000220: 8ae3 2e3e 62ba a33c c3f4 83bc 2a4f 733c
00000230: 0a5c 0f3d f2ba 2c3e dfda 4c3d 19fc d43d
00000240: 427e 9abd 28a9 d33c d7a0 d73a 54d9 5b3d
00000250: 433f cebd 228b 9f3a ed0f 36bb 75a8 18be
00000260: 424f 44bd 14a6 d3bb 7d83 013e fded 4f3c
00000270: bc83 6bbc 5b9f 8dbd 78b2 a4bd 620b d83b
00000280: 4a90 ae3c 452e 413d f3e4 57b9 fef3 913c
00000290: f7cc b0bc 9b1e 0f3e 88d5 0a3e 644d 953d
000002a0: 5a19 30be 054f 8fbc 7bbf a83d aade 1dbd
000002b0: ad40 88bd 6105 63bd 80c3 fc3d 3e1f 77bd
000002c0: 085f acbd 00d8 dc3d 1882 1e3e 0caa b93d
000002d0: ce00 c9bd 3d91 773d 13de 2b3d d05a 2f3e
000002e0: 747b d63d dd00 0e3e f4c2 913d f825 a4bd
000002f0: ee5d a83b d593 b33d 65e6 4d3d 4e50 083d
00000300: cdba c6bd 76c3 edbd d132 70bd f94e 17bd
00000310: 9932 5e3c 11bb 15bd f6ca 083c a809 2bbd
00000320: 99f2 b03c 0075 85b8 400e 7ebb 3a34 013c
00000330: 808b d6b9 12c8 373c d5c6 583c 3091 85ba
00000340: 10c5 fe3b 5da1 833c c268 7e3c 0f13 04bc
00000350: 0766 4cbc c5b6 983c b03d 5a3b 8cc4 8cbc
00000360: 839b bb3c 4fea 3fba b9bd 72bc 7a5c 6dbc
00000370: a813 1ebb 2890 553c 5b63 b73c 5333 c03c
00000380: 2e68 91bb fc5f e73d 870e 3c3d 4839 aa3d
00000390: d165 503c f5f3 9b3d 18ed 853d c22e e03d
000003a0: ebe6 ecbd 8eae ae3b 2a1f 9f3d 0354 283d
000003b0: 72b6 35bb 1cdd 293b 47df 39bc 548d 2cbe
000003c0: 6374 9f3d b1ec be3d d201 fa3d 0164 ed3d
000003d0: 4c12 80ba 7fa0 063d f861 373d c30c 3a3d
000003e0: 0afe 7c3d bab4 6b3d 4103 133d daf3 933d
000003f0: 91c0 ccbc ed1a dcbb 1f46 53bd d2ff 92bd
0.015925812 0.04849141 -0.048867438 -0.078240424 0.012483425 0.020078896 0.028840128 0.0045174193
-0.04274131 0.021567302 0.034574233 -0.02971494 0.14829515 -0.018905943 0.006671647 -0.0075662304
0.045233253 -0.022340234 0.009279765 0.041862346 0.055862863 0.031646553 -0.022601953 -0.029746048
0.0015023357 0.096056476 -0.027320703 -0.17361407 -0.13515024 -0.050162777 0.033103198 -0.038376544
-0.05029333 -0.052521292 0.019343363 0.023493351 0.02616254 0.11638423 -0.035050247 -0.03158976
0.04850609 0.031942286 0.014928324 0.09834865 0.09902369 0.0102914 0.08373693 -0.057233542
0.13926683 0.2414229 0.012462908 -0.0025036726 0.0057038628 0.020895915 0.018869208 -0.019978756
-0.023973612 -0.012442428 0.0011395551 -0.013610116 0.021711575 0.021443123 0.019399362 -0.013812512
-0.005305905 0.008470359 -0.020567965 -0.012778438 0.014992004 0.019015996 0.0064900685 -0.022644777
0.01292205 -0.016018964 0.013914255 0.01770309 0.0031892147 -0.03051309 -0.0053899186 0.035443455
-0.034355514 -0.1040373 -0.18477722 -0.080884404 -0.12309704 -0.10068853 -0.05027088 -0.052456375
-0.029946582 -0.04580552 0.16002533 0.10784191 0.06288846 0.086312376 0.07430626 0.03576208
0.020241123 0.017714793 -0.10765768 0.038521446 -0.009937641 -0.030155864 -0.033976845 -0.04918401
0.0059542977 -0.057147693 -0.11424248 -0.06291867 -0.04398526 -0.04954149 0.051713154 0.044743977
0.04187701 -0.18245411 0.01377505 0.09575696 0.062495008 0.025377862 -0.0074529937 0.1023923
0.028708015 -0.019953635 0.034306042 -0.020469526 -0.0066805705 0.091619715 -0.14181468 -0.06593769
-0.036639348 -0.0013959336 -0.048004888 -0.06277129 0.002202178 0.015184495 0.028337017 0.120764896
0.17078987 0.019986335 -0.016107922 0.014850417 0.034999885 0.16868189 0.05001342 0.10399646
-0.07543613 0.025837496 0.0016451132 0.053674057 -0.1007066 0.0012172202 -0.0027780489 -0.14908011
-0.04792715 -0.006459007 0.12647815 0.012691018 -0.01437467 -0.0691516 -0.08041853 0.006593154
0.021309037 0.047163267 -0.00020589288 0.01781654 -0.02158211 0.13976519 0.13558018 0.07290152
-0.17197171 -0.017493734 0.08239647 -0.038542427 -0.06652961 -0.05542505 0.12341976 -0.06033253
-0.08416563 0.10783386 0.15479314 0.09065637 -0.098146066 0.060441244 0.041959833 0.17124486
0.104727656 0.13867517 0.071172625 -0.080150545 0.0051381504 0.08768431 0.05026855 0.03327971
-0.09703598 -0.11609547 -0.058642212 -0.03694055 0.013561868 -0.036555354 0.008349171 -0.041757256
0.021600055 -6.363727e-05 -0.0038765818 0.007885987 -0.00040921196 0.011217134 0.013230999 -0.0010190364
0.0077749565 0.016068155 0.015527906 -0.008061185 -0.012475497 0.018641839 0.0033300929 -0.017183565
0.022901302 -0.00073209865 -0.014815741 -0.01448738 -0.0024120603 0.013034858 0.022386244 0.023461973
-0.004437468 0.112976044 0.04591229 0.08311707 0.012719587 0.076148905 0.06539363 0.10946418
-0.115674816 0.005330867 0.07769616 0.041095745 -0.0027727154 0.0025919145 -0.011344737 -0.16850787
0.07785871 0.09322489 0.122073784 0.1159134 -0.0009771078 0.032867905 0.044771165 0.045422327
0.061765708 0.0575454 0.035891775 0.07224245 -0.024994167 -0.006717077 -0.051580545 -0.071777

fc1.bias f4 [128]
00000000: 639e ef3c d14f babc 2686 863c 753a aabd
00000010: ca29 6ebc 3966 7dbd 95f8 02bb 7bf6 293c
00000020: 5273 aabc 67d5 eebc b5fb ac3c 49cf e8bc
00000030: 67d6 cc3c 8093 063b 286c 9fbc 1782 f9bc
00000040: eaff 7d3d d78a 843d 1a0b 86bc 7764 bfbc
00000050: cd71 26bc b09d 8fbc eb22 523a d2e8 61bc
00000060: 9a53 c4bc 9885 aab9 e61e 2a3d ef08 b4bc
00000070: 66d1 073d 4ae9 febb 7580 073d 2912 17bd
00000080: d65d e4bb c7bb 0bbc 938f dfba 405d aebc
00000090: 5962 8d3d b9bf 9f3c dfff 8f3b b308 683d
000000a0: fe69 e3bb 888c 133d 43c9 2a3c 576f 9b3d
000000b0: 0fca 933c 7eff 84bc 47d1 1bbb b044 08bc
000000c0: 6446 18bd 71a4 d7bc 1883 213d cd22 0bbb
000000d0: 9a4c fbbb 6f09 2ebc 82d0 96bc f1a4 1abc
000000e0: dce8 4dbd 177a 773d 1868 b53b f9ff 8f3c
000000f0: ca25 41bc 8685 60bb cfd7 3fbd ccaa af3d
00000100: 2aaa ebbc 5c12 db3b 87b2 babc 811a e2bb
00000110: 52fa 33bc 6b6e 613c c774 203d 2acc c4bc
00000120: 689a 893d 68d2 4cbc a340 20bc 576a 8c3c
00000130: 434d ddbc e61f f53b 1734 223d f4e7 2abd
00000140: 925d a73c 7866 493b b5d6 333b b74b 4ebc
00000150: 3170 debc 6c34 283c da0d b43b 72d2 08bc
00000160: aa6e ec38 bee0 3d3d bfaa 04bb 42a0 a63b
00000170: f9c7 8e3c 02a6 69bd 8782 2cbd 7ca5 56bc
00000180: d652 cf3c d032 2fbd d4ff 90ba ac1a 983c
00000190: 3cac e3bb 95bf e8bb 9dea e2bb 9242 9c3a
000001a0: d0b9 813d ffbc 4fbc bf59 3f3d c845 b53b
000001b0: 63a6 153d 94b3 3fbc 1ed0 3b3d 2654 a3bc
000001c0: a57f 463b 8c73 033d ce22 3d3d 7e95 d63c
000001d0: f171 b53c 7f63 1dbc ee97 5b3c 6bc5 c83b
000001e0: 1774 c7bc add2 e2ba bba1 c9bc af4b 043d
000001f0: df5c 0dbd 895c d53b 6eb7 3c3d 42db 703c
0.02925033 -0.022743138 0.016421389 -0.08311931 -0.0145363305 -0.061865065 -0.0019984592 0.010373707
-0.020806942 -0.029154493 0.021116117 -0.028419154 0.025004579 0.0020534694 -0.019460753 -0.03045754
0.062011637 0.06471794 -0.016362716 -0.023363335 -0.010158968 -0.017531246 0.00080160674 -0.013788419
-0.023965646 -0.00032524462 0.041533373 -0.021976916 0.033158682 -0.007779275 0.03308149 -0.036882553
-0.006969194 -0.008528656 -0.0017056338 -0.0212847 0.06903524 0.0195006 0.004394516 0.05664892
-0.0069401255 0.036022693 0.010423961 0.07589596 0.018040685 -0.01623511 -0.0023775862 -0.008317158
-0.037176505 -0.026323529 0.03943166 -0.002123046 -0.0076690437 -0.010622366 -0.018409971 -0.009438739
-0.0502709 0.06041917 0.0055360906 0.017578112 -0.011788795 -0.0034259274 -0.04683667 0.08577499
-0.028767664 0.006685538 -0.022790207 -0.006900132 -0.010984974 0.013759236 0.039173868 -0.024023134
0.06718904 -0.012501337 -0.009781036 0.01714055 -0.02701438 0.007480609 0.039600458 -0.041725114
0.02043036 0.0030731242 0.0027441208 -0.012591294 -0.027153106 0.010266405 0.0054948153 -0.008350955
0.0001127397 0.04635691 -0.0020243374 0.005085022 0.017429339 -0.057043083 -0.042116668 -0.013100978
0.025308054 -0.042773068 -0.0011062571 0.018567406 -0.006948022 -0.0071029165 -0.0069249407 0.0011921695
0.06334269 -0.0126793375 0.046716448 0.005532 0.036535632 -0.01170053 0.045852773 -0.019937586
0.0030288484 0.032092616 0.04617577 0.02619433 0.022149058 -0.009606241 0.013402922 0.0061270497
-0.024347348 -0.0017305218 -0.024613252 0.03229874 -0.034512397 0.006511275 0.04607337 0.014700713

fc2.weight f4 [10, 128]
00000000: b45c bebd 451c 0cba 5c93 7dbd 11d7 1cbe
00000010: 8450 bebd cd80 07bd 0cb5 263e c6f4 83bd
00000020: f2bb 66be 0ae1 533d 4427 9b3d 9ca5 28be
00000030: 093b 5ebe 0009 52b7 5dc5 a3bd 2876 05bd
00000040: db57 48be 4851 033e cfe9 fe3d a3f0 683d
00000050: da41 c73c 4c2f 143a ecd0 60bd 6e5a 8c3d
00000060: a44b a4bd bd4a 2ebd 85fb f2bd 1e61 6dbe
00000070: 5cf6 05bd 94f4 7cbc 3d9b 2d3d 37b2 2fbe
00000080: dcfa 82bd 7aa5 ea3c cd19 473d 8078 0c3d
00000090: b5c3 14bd cd84 fb3d 2927 a7bd 95ef 303e
000000a0: f66d 82be c735 363d 44e2 783c be1f dc3d
000000b0: 02cf 4f3d 0af8 613d e3f7 a0bd 3c99 57be
000000c0: f03b 0ebe e0bb 353d 854d 043e 8b48 80bb
000000d0: 3549 fb3c a7f0 3dbd 6a04 103e 2904 28be
000000e0: 4e97 42bd 9c31 063e af51 27be 907f bf3d
000000f0: af12 11bd 404f babd 4942 dd3c 8f98 283d
00000100: 99ce 92bd cd47 3b3d 992c 42bd 5ac2 9fbd
00000110: d938 9e3c 2041 98ba f46e 103e 0bb2 a1bb
00000120: 8251 74be 36b7 8c3d 68bb 52bc ad45 2bbe
00000130: 8591 fa3d 5b31 78bc 31b8 7dbe d0c1 52be
00000140: d394 f43d ced1 71bd 0425 a6be 40b7 f6bc
00000150: 0c4c a4bd 60ca a3bd 443e 1dbd 5b88 30bb
00000160: 989f 9fbd dbef ff3d 20d9 793d 18bb a8bd
00000170: f995 e93d f4de e5bd b592 3bbd 040f 4e3b
00000180: d38b 47be c814 41be 483c 8bbe 50b3 c4bc
00000190: e601 0fbd f7e4 853d 67aa 52bd 6a00 abbe
000001a0: 5467 9c3d 8c88 abbb 5ae8 45be c69f 1e3e
000001b0: c302 b93d 813e b13d 43e8 073e 77d0 603d
000001c0: ebe2 e9bd a24b e73d 242c 34be 3477 f23c
000001d0: ac6c 34be 2c76 fbbd 44e7 653d 7b30 b6bd
000001e0: 7957 82bd 47de 6dbd 0ed1 3dbd a0d4 8fbe
000001f0: 9503 cabd 2335 debc 9f1f 563d 6fed 503c
00000200: e379 a63d 1aed 8e3d f41c 1b3d 333d 84be
00000210: 924b 50bd 20c6 9bbd c924 b3bc 329e 173d
00000220: ed39 00be 3f87 20be fce8 923d 125d 18be
00000230: 298e c3bd d7a2 64be ac60 01bd bea5 8e3d
00000240: ee87 ec3d 630a 413c a3c5 babc b36f bebc
00000250: e123 29be 2135 83bd c60b 8cbd 5456 8e3d
00000260: 1a7e b9bd fa87 eebd 06e1 183d ed99 d03d
00000270: 026e ddbb 5695 80bd 019e b83c 3fd6 5abe
00000280: 445e 84bd 775e 9b3d 0154 6ebe 059e c7be
00000290: cf3c 4b3d e50e c9bd a865 9c3c d059 a93c
000002a0: 6605 153e 3a6d 6f3e c66a 8a3d 97c2 573d
000002b0: 2a3f 04be dcb0 82bc 94bc 143c 28e6 bc3d
000002c0: 6f63 1d3c c64d 84bd 0b22 67be 8671 3c3b
000002d0: 9edf f1bc b74f 01bd 4ce6 103e 9ca8 8d3c
000002e0: 3bfd 2f3d 5db9 8e3d 8771 033e 3440 b03d
000002f0: ebae 11bd 0019 74be 829c 4ebe 3d60 1b3e
00000300: 0e3b 87bd 07bb f13d 4601 2d3d 22b3 afbd
00000310: 7529 49be ac77 63bd 2c34 57be c624 abbc
00000320: 0f6e d73d 4068 90bd 770e 5abd b52a c43d
00000330: c8b9 36be a73d da3d a639 b93d b61e debd
00000340: e1d1 29bd 4ba4 43bd 69bc 00bd c221 44bd
00000350: f203 abbd d71a 1cba bf24 b2bd 1525 96bd
00000360: 51d4 623d 49f6 ccbd 33ac a9bd bb80 e53c
00000370: 814b 063d 3454 cdbd 23e3 27bd d287 60bc
00000380: bd9f 353d 813f b9bd 3a7c 6abe 3a15 8cbc
00000390: b3a7 8bbd 24a9 1dbe 4a11 0c3d 8b66 ba3d
000003a0: 53f3 d83d 0444 cbbd 4a1a 6abd 428e 4fbe
000003b0: e386 8a3d d673 02be dee4 843d b5f0 cbbb
000003c0: 8494 2a3c 9a81 5bbe 74aa bc3d 6e7c 1e3e
000003d0: 2983 ca3d 96d1 69bd a602 d63d a531 80be
000003e0: da17 6fbd 2e07 993d 2a2c f03c 6562 5e3d
000003f0: de31 b7bd e29a 833d 1613 94bd 9c95 a6bd
-0.092950255 -0.00053447887 -0.06190811 -0.15316416 -0.09292701 -0.03308182 0.16280001 -0.06443171
-0.22532633 0.051728286 0.07575849 -0.16469425 -0.21702208 -1.2519071e-05 -0.079966284 -0.032583386
-0.19564764 0.12823975 0.12446939 0.056870114 0.024323393 0.00056528 -0.054886743 0.068531856
-0.0802224 -0.042551745 -0.1186438 -0.23181579 -0.03270565 -0.015439171 0.042384375 -0.17157827
-0.06395504 0.028643358 0.04860859 0.034294605 -0.036319453 0.12281189 -0.08161766 0.17278893
-0.2547452 0.04448488 0.015190665 0.10748242 0.050734527 0.05516819 -0.07859781 -0.21054548
-0.13890052 0.044368625 0.12920196 -0.003914898 0.030674556 -0.046372082 0.14064184 -0.16407837
-0.047507577 0.13104862 -0.16339754 0.093505025 -0.03541821 -0.09097147 0.027009146 0.041161116
-0.071683116 0.04572277 -0.047405813 -0.078007415 0.019314216 -0.0011616088 0.14104825 -0.0049345545
-0.23859218 0.06870882 -0.012862064 -0.16725798 0.12234787 -0.015148486 -0.24777295 -0.20581746
0.119424485 -0.059037976 -0.32450116 -0.030116677 -0.08022317 -0.07997584 -0.03838946 -0.0026936743
-0.07794112 0.12496921 0.060998082 -0.0823881 0.11405558 -0.112241656 -0.045794208 0.0031442055
-0.19486932 -0.18855584 -0.27194428 -0.024011284 -0.03491392 0.06537812 -0.05143204 -0.33398753
0.07636896 -0.0052347835 -0.19326916 0.15490636 0.0903373 0.086545 0.13272195 0.054886308
-0.11420234 0.11293723 -0.17594963 0.029597856 -0.1761958 -0.12278399 0.056128755 -0.08895966
-0.0636434 -0.05807331 -0.04634195 -0.28091908 -0.098639645 -0.027124947 0.05227625 0.012751921
0.08128717 0.06978817 0.03786941 -0.2582794 -0.05085332 -0.07606149 -0.021868126 0.0370161
-0.12522097 -0.15676592 0.071733445 -0.14879254 -0.09548599 -0.22327743 -0.031586334 0.069652066
0.11549364 0.011782262 -0.022799319 -0.023246622 -0.16517593 -0.06406618 -0.06838183 0.069500595
-0.09057255 -0.11647029 0.037323974 0.10185609 -0.0067574987 -0.062784836 0.02253628 -0.21370791
-0.06463292 0.07586377 -0.23274232 -0.38987747 0.04961854 -0.09817294 0.019091442 0.020672709
0.1455284 0.2338151 0.06758647 0.05267581 -0.1291472 -0.015953474 0.009078164 0.09223586
0.009606226 -0.064601466 -0.2257158 0.0028754189 -0.029525574 -0.031570163 0.14150351 0.017292313
0.04296611 0.06968949 0.12836276 0.08605996 -0.035567205 -0.23837662 -0.2017689 0.1517343
-0.06603061 0.11803251 0.042237543 -0.08579089 -0.19644721 -0.05553405 -0.21015996 -0.020891558
0.10519039 -0.07051134 -0.05323645 0.09578458 -0.17844307 0.106562905 0.09044199 -0.108457014
-0.04145992 -0.047764104 -0.031429682 -0.047883756 -0.08350362 -0.0005954927 -0.08698415 -0.073312916
0.055378262 -0.10007913 -0.082847975 0.028015485 0.03278685 -0.10025826 -0.0409881 -0.013704257
0.04434179 -0.090453155 -0.22898951 -0.017099965 -0.068190955 -0.15396553 0.034196176 0.0910159
0.105932854 -0.09925082 -0.057153977 -0.20269111 0.06764009 -0.127395 0.064889655 -0.006223763
0.010411385 -0.21436158 0.09212199 0.15477154 0.09888298 -0.057084642 0.10449724 -0.25037876
-0.058372356 0.074720725 0.029317934 0.054293055 -0.08945058 0.06426026 -0.07230203 -0.081340045

fc2.bias f4 [10]
00000000: d872 ac3c 59cb 013d be38 69bc fca4 b4bc
00000010: c97d 363d 6c1e 8e3d 665a dfbc 1664 8ebd
00000020: e250 86bc 0724 14bb
0.021050856 0.031688068 -0.01423472 -0.022051327 0.04455355 0.06939396 -0.027264785 -0.06952684
-0.01639599 -0.0022604482
